Evolution Practicals/Species Practical/model.pt (torch, 3539 bytes, 4 tensors)

weight f4 [16, 16]
-0.1759363 0.048654113 -0.013875769 -0.24020238 0.14253043 -0.33180085 -0.11352202 0.07193487
-0.1544612 0.06949161 0.12421787 -0.23931086 -0.33641466 0.0065938607 -0.122472934 0.049614996
-0.24186647 0.15513816 -0.068440676 0.18909052 -0.24804854 0.10658789 -0.10922861 -0.100690484
0.24453631 -0.16128969 -0.04058957 0.19697997 0.20850277 -0.058234274 -0.16123211 0.15266356
0.0073199044 -0.17151305 0.115495495 0.070218824 -0.2994692 0.014256636 0.023517262 -0.18364392
-0.05541401 0.063415244 0.042275935 -0.12120773 -0.23189579 -0.105852775 -0.10705008 -0.09386804
0.016970739 0.23847234 0.39109278 -0.3100736 -0.41080204 -1.0334969 -1.1280725 -0.7380727
0.057703897 0.4258461 0.41792512 0.16822496 0.066315114 0.22161259 0.21002245 0.35569912
-0.16248664 0.020289868 -0.19078833 -0.20336697 0.2280119 0.15113887 -0.15696344 0.003965944
0.2178435 0.050783396 0.10379997 -0.1119878 0.08132529 -0.16012907 -0.042904466 -0.12252587
-0.023650503 -0.10040626 -0.34535903 0.43055713 0.19084838 0.07491167 0.89385766 0.5244954
0.03717344 -0.003495572 -0.1608035 0.11342883 0.24021287 -0.57431203 0.07821518 -0.7330637
0.11183709 -0.21563378 -0.16803828 -0.075217664 -0.06207329 -0.19577345 0.16844216 0.24802655
0.07947302 0.1831441 0.0048398376 -0.16456985 -0.23548722 0.21071857 -0.09686163 -0.099225104
0.0035379168 -0.20536067 0.08851896 0.40038985 0.23006734 0.8872079 0.6162682 0.9643068
-0.028619565 0.03338368 0.14547697 0.29754716 -0.0136578465 0.05647054 0.23830304 -0.24914439
0.22024465 -0.09278494 -0.07867077 -0.16271523 -0.099699974 0.15051642 -0.079879194 -0.032336682
0.12442845 0.22314659 0.012901664 0.195353 0.1734238 -0.084553 -0.24152559 -0.20229033
-0.16990721 -0.31056252 -0.0046412502 -0.21850449 -0.012438187 -0.1537521 -0.09834817 0.13926534
0.13251159 0.006783844 0.14628853 -0.068901226 -0.08351572 0.076297306 -0.08391731 0.14153369
0.13482195 -0.11929056 0.019133955 -0.12504807 -0.08822492 -0.19664004 0.19631985 0.23770204
0.21036917 -0.14045176 -0.21632838 0.07177511 0.007339567 -0.074775636 -0.114207745 -0.24941987
0.076916195 -0.16225041 -0.090726 0.11883872 -0.31762382 -0.10784 -0.18368979 0.008002689
-0.044381466 0.11248292 -0.26009652 -0.22999643 -0.07046908 -0.08888016 0.037428208 -0.0191173
-0.23485 0.15610044 -0.10845544 0.070073895 0.13887155 -0.30773863 -0.28460136 -0.186288
0.07940152 -0.024575664 -0.11785194 0.17300646 -0.10388623 0.035621077 -0.13383324 0.053022426
-0.005668666 0.50556993 0.40831745 -0.025017964 0.013900514 -0.3501001 -0.69756603 -0.32964537
0.09314037 0.13832636 0.11495579 0.059708636 0.060854588 0.5982368 0.09287527 0.5382742
-0.0179241 0.20387757 0.027518451 -0.14137188 0.0759798 -0.15132198 0.062226504 -0.021314561
-0.0492422 0.20052865 -0.21127215 0.053735763 -0.059491962 -0.14603496 -0.07102555 -0.23130035
-0.04170709 0.0051887073 -0.13082404 0.09562614 -0.092250966 0.04361956 0.09089805 -0.18876164
-0.17209229 0.098978154 0.033331487 0.15275192 0.028898709 -0.03951344 -0.27837202 0.021680094
00000000: a528 34be 8949 473d 3257 63bc 9df7 75be
00000010: 7ff3 113e cde1 a9be 3c7e e8bd 9752 933d
00000020: 142b 1ebe 9e51 8e3d f065 fe3d e80d 75be
00000030: 8b3e acbe 5011 d83b 17d3 fabd 1839 4b3d
00000040: d8ab 77be 8adc 1e3e a02a 8cbd f2a0 413e
00000050: 7000 7ebe c04a da3d 40b3 dfbd d036 cebd
00000060: ba67 7a3e 2029 25be 4041 26bd 1eb5 493e
00000070: c081 553e 1087 6ebd 081a 25be d653 1c3e
00000080: cfdb ef3b 1ea1 2fbe e788 ec3d e3ce 8f3d
00000090: 0754 99be aa94 693c 46a7 c03c 270d 3cbe
000000a0: cdf9 62bd dadf 813d 8829 2d3d c23b f8bd
000000b0: 1776 6dbe 57c9 d8bd 133d dbbd e33d c0bd
000000c0: 3806 8b3c 1832 743e 503d c83e f8c1 9ebe
000000d0: a554 d2be a049 84bf ae64 90bf 55f2 3cbf
000000e0: ec5a 6c3d 8008 da3e 48fa d53e 2a43 2c3e
000000f0: 38d0 873d 69ee 623e 2010 573e 321e b63e
00000100: e662 26be f036 a63c 045e 43be 6e3f 50be
00000110: f47b 693e 26c4 1a3e 06bb 20be c0f4 813b
00000120: 5e12 5f3e 4002 503d 1495 d43d dc59 e5bd
00000130: e08d a63d e0f8 23be 98bc 2fbd d8ee fabd
00000140: b3be c1bc cca1 cdbd e6d2 b0be fc71 dc3e
00000150: c26d 433e 4a6b 993d dbd3 643f 5545 063f
00000160: 2d43 183d f715 65bb aca9 24be 604d e83d
00000170: 5dfa 753e 1d06 13bf 482f a03d 10aa 3bbf
00000180: d80a e53d 1acf 5cbe 3a12 2cbe b80b 9abd
00000190: 9040 7ebd d678 48be 1a7c 2c3e acfa 7d3e
000001a0: c0c2 a23d 208a 3b3e 8097 9e3b 0085 28be
000001b0: 9023 71be 9cc6 573e 645f c6bd 8836 cbbd
000001c0: 65dc 673b 114a 52be 6e49 b53d e6ff cc3e
000001d0: c696 6b3e 0f20 633f c1c3 1d3f cfdc 763f
000001e0: 9473 eabc 53bd 083d eaf7 143e 1a58 983e
000001f0: 29c5 5fbc a74d 673d b605 743e b51f 7fbe
00000200: d087 613e 0806 bebd 241e a1bd d29e 26be
00000210: 802f ccbd fa20 1a3e b497 a3bd 7873 04bd
00000220: 58d4 fe3d 8a80 643e 8061 533c 9e0a 483e
00000230: 0296 313e 202a adbd 7c52 77be 3225 4fbe
00000240: 28fc 2dbe 0d02 9fbe a115 98bb a4bf 5fbe
00000250: 8ac9 4bbc 3171 1dbe c46a c9bd 939b 0e3e
00000260: 1eb1 073e 024b de3b a9cc 153e 161c 8dbd
00000270: 4a0a abbd c341 9c3d d7dc abbd 35ee 103e
00000280: c40e 0a3e 9c4e f4bd d0be 9c3c 9a0c 00be
00000290: 44af b4bd 025c 49be 1208 493e 2a68 733e
000002a0: 046b 573e 96d2 0fbe 3085 5dbe d4fe 923d
000002b0: c080 f03b f823 99bd c0e5 e9bd ec67 7fbe
000002c0: 3d86 9d3d f924 26be 8ece b9bd b761 f33d
000002d0: 979f a2be 38db dcbd 2d19 3cbe b61d 033c
000002e0: 57c9 35bd 725d e63d 5f2b 85be 2f84 6bbe
000002f0: 1852 90bd cd06 b6bd 524e 193d e29b 9cbc
00000300: 857c 70be cbd8 1f3e e31d debd e782 8f3d
00000310: 5834 0e3e eb8f 9dbe 45b7 91be 48c2 3ebe
00000320: 449d a23d e752 c9bc 5c5c f1bd 9b28 313e
00000330: 4ec2 d4bd 68e7 113d 950b 09be 0b2e 593d
00000340: 38c0 b9bb 086d 013f fc0e d13e 79f2 ccbc
00000350: fbbe 633c 5240 b3be b093 32bf 47c7 a8be
00000360: 61c0 be3d 6da5 0d3e f16d eb3d 0b91 743d
00000370: a942 793d 0c26 193f 6435 be3d 57cc 093f
00000380: 90d5 92bc 48c5 503e 606e e13c cac3 10be
00000390: 4c9b 9b3d 26f4 1abe 38e1 7e3d e09b aebc
000003a0: 30b2 49bd 6257 4d3e ba57 58be 081a 5c3d
000003b0: d8ad 73bd 308a 15be d875 91bd 00da 6cbe
000003c0: 0ed5 2abd 0806 aa3b bdf6 05be a3d7 c33d
000003d0: 13ee bcbd 6caa 323d c228 ba3d bb4a 41be
000003e0: f638 30be 0fb5 ca3d 9986 083d 006b 1c3e
000003f0: fcbc ec3c d8d8 21bd c786 8ebe 749a b13c

bias f4 [16]
-0.17965858 0.08288133 -0.15957212 0.521376 0.23368561 0.024315253 0.122084945 -0.15845646
-0.15988734 -0.07718936 0.16864094 0.18261147 0.04925908 0.1230604 0.064780146 -0.25302395
00000000: 6bf8 37be b0bd a93d e066 23be e678 053f
00000010: 484b 6f3e c830 c73c ac07 fa3d 6942 22be
00000020: 82b9 23be 7515 9ebd 36b0 2c3e 80fe 3a3e
00000030: e4c3 493d 1707 fc3d 74ab 843d 5b8c 81be

weight f4 [3, 16]
-0.12022529 -0.07524845 -0.07522995 0.7096232 -0.15934923 -0.27545863 -0.11985555 -0.66402847
0.042292506 -0.0941067 -0.13981459 0.2049431 0.08476214 0.48187378 0.064469814 0.0627126
-0.34890145 0.08937344 0.0811657 -0.076099455 -0.19541347 -0.6448086 -0.0009896457 0.24209206
-0.23497644 0.11187635 0.058540285 0.11339793 -0.24405202 0.27099246 -0.13751063 -0.1864315
-0.09462839 -0.17665368 0.061855324 -0.466319 0.15360832 1.0021989 -0.039907664 0.48591447
0.08295447 -0.030858528 0.01222232 0.06831126 0.0648979 -0.7246158 0.15621299 -0.24337325
00000000: ad38 f6bd dc1b 9abd 2912 9abd dea9 353f
00000010: 722c 23be ea08 8dbe d476 f5bd c5fd 29bf
00000020: e83a 2d3d 03bb c0bd 8e2b 0fbe 9bdc 513e
00000030: c697 ad3d 29b8 f63e c008 843d 776f 803d
00000040: 36a3 b2be 6c09 b73d 343a a63d 08da 9bbd
00000050: 781a 48be 2d12 25bf 00b7 81ba fbe6 773e
00000060: aa9d 70be 6e1f e53d f0c7 6f3d 2d3d e83d
00000070: c6e8 79be 86bf 8a3e 96cf 0cbe e6e7 3ebe
00000080: 88cc c1bd b4e4 34be 025c 7d3d 5dc1 eebe
00000090: 804b 1d3e 0e48 803f 3876 23bd c8c9 f83e
000000a0: 08e4 a93d 06cb fcbc 2040 483c c6e6 8b3d
000000b0: 31e9 843d 6c80 39bf 4cf6 1f3e d636 79be

bias f4 [3]
-0.35850355 0.40260985 -0.52437466
00000000: c78d b7be e122 ce3e 6b3d 06bf
