Evolution Practicals/Species Practical/model.pt (torch, 3539 bytes, 4 tensors)

weight f4 [16, 16]
000000 a1 f7 b6 3d 1f 79 03 be cf aa 2a be 15 c6 b0 3d
       0.0893395 -0.12839173 -0.16666721 0.08631531
000010 bf 69 9a 3d 0b 78 9f 3e 50 87 4b 3f 01 b5 d4 3e
       0.07539701 0.31146273 0.79503345 0.41544345
000020 51 ec 58 be 34 41 6b be 1d 0b 22 be 13 7e 8a 3e
       -0.21183898 -0.22974092 -0.15824552 0.27049312
000030 44 9e ba 3e 7f 70 46 bf 72 34 8f 3d 81 f8 c5 be
       0.36448872 -0.77515405 0.06992425 -0.38666156
000040 e0 56 05 bc 34 c7 6e be e8 a2 51 3d 90 6c 13 be
       -0.008138388 -0.23318177 0.05118075 -0.14396882
000050 34 cd b5 bd f4 ca 31 be 80 a7 0e 3b 8c 0a a8 3d
       -0.0887703 -0.17362577 0.0021767318 0.08205137
000060 20 9e 4d bc 58 2d 68 bd 10 08 bc 3c c2 e6 49 be
       -0.012549907 -0.05668387 0.022953063 -0.19716933
000070 14 3e b6 bd 80 59 a8 3d 50 d3 22 be e4 31 c8 bd
       -0.08898559 0.08220196 -0.15900922 -0.09775141
000080 b5 fb 0d 3d f8 d4 aa be 68 c5 20 be e9 ba 2c be
       0.034663875 -0.33365607 -0.15700305 -0.16868176
000090 b9 96 3a 3d 77 89 c9 3d 5b 5c e3 bd a9 ad f5 3d
       0.045553897 0.098406725 -0.111016 0.11996014
0000a0 e9 5d 84 be a7 66 8e be e9 9d c3 bd a4 37 94 bd
       -0.25852898 -0.27812693 -0.09551603 -0.07237175
0000b0 04 4b 35 bd 66 38 55 3d 72 0e 01 3d d4 c2 f8 3d
       -0.044260994 0.05205574 0.031507917 0.121465355
0000c0 36 8c b5 3d 8b 95 8b be b9 a3 89 be 16 c7 93 be
       0.08864634 -0.2726253 -0.26882723 -0.28862828
0000d0 3f 28 5e 3d 70 fc 38 be 8b 72 f9 3d 7d ca 54 bc
       0.0542376 -0.18065047 0.121800505 -0.01298773
0000e0 cf 37 3f be d6 5b c3 bd 09 ce 25 3e 9a e6 a7 be
       -0.18673633 -0.09539001 0.16191877 -0.32793123
0000f0 27 40 ae bd cb 77 da bd 12 b7 8d bc dd d9 54 bd
       -0.0850833 -0.1066738 -0.017299209 -0.051965583
000100 cb 99 6b be 9d 2c 60 bd b3 68 05 be e0 87 02 be
       -0.23007886 -0.054730047 -0.13028221 -0.12747145
000110 97 fb a6 3c 98 8d 4d bd 36 df 61 be 57 22 9a be
       0.02038364 -0.050183862 -0.22057804 -0.30104324
000120 14 89 ee bd 50 6d c1 bd c2 06 98 3d eb 4c b9 bc
       -0.11647239 -0.09444678 0.07423164 -0.022619685
000130 c6 74 93 3c 1b 51 b9 bd ae 88 2b 3b 64 8a b7 bd
       0.018000018 -0.09048673 0.0026173997 -0.08961943
000140 f0 68 80 3d 19 e1 bc 3a 75 9a a2 be ad fc b6 3d
       0.06270015 0.0014410346 -0.31758466 0.08934913
000150 88 d3 8e bb 22 dd 53 3e b9 bb 30 3e 29 02 3c 3e
       -0.0043587126 0.20689824 0.1725911 0.18360199
000160 eb d6 d1 3c 95 34 4a be 8b d5 a0 bd ca 14 34 3c
       0.025615176 -0.19746621 -0.0785323 0.010991285
000170 55 9d 94 bd 27 c1 99 bd b2 9a 71 3d eb 13 a6 be
       -0.07256571 -0.07507544 0.05898542 -0.3243707
000180 28 68 bf bd 6f 82 e3 3e c1 48 0b 3d ae 4d b0 be
       -0.09346038 0.4443545 0.03400493 -0.34434265
000190 fe 55 94 3d 29 bc 0a bf 18 be 84 bf 21 10 81 bf
       0.07242964 -0.5419336 -1.0370512 -1.0083047
0001a0 01 7c dd 3d e1 78 a4 3e 17 54 89 3e 9e a1 1d 3c
       0.108146675 0.32123473 0.26821968 0.009621052
0001b0 84 96 f2 3d 29 74 b5 3e 28 95 71 3e 9b 78 ba 3e
       0.11845115 0.35440186 0.23592055 0.3642014
0001c0 e4 58 cc bd 02 b6 62 3e 50 9d 35 3e c4 bd f7 3d
       -0.09977892 0.22139743 0.17735791 0.12096742
0001d0 a6 c2 7f be 40 83 81 3c 98 5f fe 3d cc 42 31 3e
       -0.24976596 0.015809655 0.12420577 0.17310637
0001e0 a4 db 4c 3e 30 fa ab 3d f8 a4 b6 bd 68 5b 88 bd
       0.20005661 0.08397329 -0.08918184 -0.06658059
0001f0 10 b6 7d be 20 0a 12 bd 40 7d 33 be 38 a0 7b be
       -0.24776483 -0.035654187 -0.17528248 -0.24572837
000200 54 75 51 be f8 97 d8 bd 94 1d 61 3e 1a 5f 0c be
       -0.20454913 -0.10575861 0.2198394 -0.13708153
000210 d4 f6 98 3d 10 b4 34 bd ba 28 17 be 98 41 2d 3d
       0.07468954 -0.044117033 -0.1476163 0.042298883
000220 50 16 7f 3d 80 cc 17 bc b8 c6 3a be cc e7 37 3e
       0.06227714 -0.009265065 -0.18239868 0.17959517
000230 30 5d f3 bd c4 f4 17 be a4 46 15 be cc 10 e2 3d
       -0.118830085 -0.14839464 -0.14577729 0.1103836
000240 e7 7d 1c 3d 7f 23 db bc 18 69 e6 bd b4 b6 12 bd
       0.038206007 -0.026750324 -0.11250514 -0.03581877
000250 52 07 ba bd 8d 9b 95 3d b8 50 8b 3d ba 78 a4 bd
       -0.090834275 0.073050596 0.06802505 -0.08030839
000260 6c 16 64 3a 8d 28 ec bd 0c 5f 1d bc ce 16 5a bd
       0.0008700851 -0.11531172 -0.0096051805 -0.053244404
000270 3c 07 98 bd c2 32 a5 be b8 d7 14 be 71 23 35 be
       -0.07423255 -0.32265288 -0.14535415 -0.17689301
000280 5d bb c2 bd d6 4e 21 bc 0d e5 e0 bd df c0 6c 3e
       -0.09508393 -0.009845456 -0.10981188 0.2312045
000290 8f e4 5f 3e 4a 31 e9 3e 6d 99 64 3f 3a 61 4b 3f
       0.21864532 0.45545417 0.8929661 0.7944523
0002a0 e3 75 c3 3c 4e 5a 85 be 16 3a 18 3c f0 aa fb bb
       0.023859924 -0.2604546 0.0092911925 -0.0076802894
0002b0 ab c6 89 3e 45 4f ea be e2 d3 dd 3d ba 3a 82 be
       0.26909384 -0.45763603 0.10831429 -0.2543543
0002c0 2d f0 48 be 92 1c ff 3c 20 d9 c4 bb e0 c3 bf be
       -0.1962287 0.031141553 -0.0060073286 -0.37454128
0002d0 3f fa 19 be c1 7c 6b 3f 9a c0 83 3d c6 b5 13 3f
       -0.15036868 0.91987234 0.0643322 0.5769924
0002e0 ec 53 8b bd 26 88 b4 be b5 6e a7 bd 24 4a 0d bd
       -0.06803116 -0.35260123 -0.081754126 -0.034494534
0002f0 a1 05 cf be c0 6b 42 3f 67 1c e4 3d fe 40 3e 3f
       -0.40433982 0.75945663 0.1113823 0.7431792
000300 60 23 25 3e 2d 59 fc bd e6 2b 00 be 51 95 97 be
       0.16126776 -0.123216964 -0.12516746 -0.29606107
000310 6f b9 8f be 4d 82 21 3f a0 4f c0 3d 14 dc f1 3d
       -0.28071162 0.6308945 0.09390187 0.11809555
000320 66 32 d6 bd 1f 62 93 be eb e9 f2 bd 43 18 5b be
       -0.104588315 -0.28785798 -0.118610226 -0.21395974
000330 96 a6 78 3c 71 0e e7 3e 7a 39 60 3d 8c 8b 3a 3f
       0.015176436 0.45128205 0.054742314 0.7286918
000340 f0 11 8d 3c 74 fc e7 bd bc 8c 8c 3d 3c 22 15 be
       0.017220467 -0.113274485 0.068627805 -0.1456384
000350 e0 66 65 3e f8 c5 55 3d 30 82 70 3d 20 d3 0d 3c
       0.22402525 0.05219075 0.058717906 0.008656293
000360 f4 03 e3 bd d8 12 f7 3d 50 8d 0a be ac 61 d5 bd
       -0.110847384 0.12064141 -0.13530469 -0.1041902
000370 c2 90 35 be 98 37 bf bd 98 a2 ea bd 2e 3f 6b 3e
       -0.17731002 -0.093367755 -0.114567935 0.2297332
000380 86 bf 4f be 06 a2 84 be 84 44 aa 3c 6c 69 ff 3e
       -0.20287904 -0.25904864 0.020784624 0.49885118
000390 8f 7d 1f 3d 4b 4c 4b 3e 8e a3 64 3f 98 22 95 3e
       0.0389381 0.19853322 0.89312065 0.29127955
0003a0 ad 61 ae 3d b4 e7 85 be 6b e4 80 be 72 06 d8 3e
       0.08514724 -0.26153338 -0.2517427 0.42192417
0003b0 27 60 df 3e 60 64 6a bf 09 81 59 3e de 88 1c bf
       0.43628046 -0.9155941 0.2124063 -0.6114634
0003c0 04 f8 b8 bd 6c f5 4c be 20 23 4b 3d d0 79 47 3d
       -0.0903168 -0.20015496 0.049594045 0.048700154
0003d0 d2 8a 73 be b2 f0 00 3e 80 aa 7e bb 34 0d 0d be
       -0.23783424 0.12591818 -0.003885895 -0.13774568
0003e0 bc 12 af bd 30 76 e8 3d 28 2c 55 3e 6c d1 58 3e
       -0.08548495 0.113506675 0.20817626 0.21173638
0003f0 c4 09 40 3e 8a 98 63 3e c0 f5 ee bd 00 8c 67 3b
       0.18753725 0.22226158 -0.11667967 0.003533125

bias f4 [16]
000000 e2 06 d5 be 1c 5e 69 be d9 63 c6 bd 06 23 34 3b
       -0.41606814 -0.22789806 -0.09687013 0.0027486696
000010 27 98 7c be f2 96 87 be 8a ff 37 3e 96 dd 7c be
       -0.24667417 -0.2648235 0.17968574 -0.24693903
000020 1e df 44 be 4a c1 a6 be 36 d4 77 be 72 37 ef 3a
       -0.19225737 -0.32569343 -0.24202046 0.0018250777
000030 eb c9 e3 3d 00 5c 61 3d cb cf 9e be 5a 77 4a be
       0.11122497 0.05501938 -0.31017908 -0.19772092

weight f4 [3, 16]
000000 d4 b8 95 be 5e 63 15 be a4 7c 94 bd c3 9a 24 3e
       -0.29242575 -0.14588687 -0.07250336 0.16074662
000010 8f 3b fc 3b fc 15 d0 bd 3a f8 e2 3e a8 9f 2c 3e
       0.0076975296 -0.10160443 0.44330007 0.16857779
000020 b4 ec df 3d b4 43 1e be a1 00 1c be ef 3b d7 be
       0.109338194 -0.15455514 -0.15234615 -0.42037913
000030 42 44 af be bc 71 89 bd 74 be 6e be c0 65 06 bd
       -0.34231764 -0.06711146 -0.2331484 -0.03281188
000040 bb 03 a9 be 10 76 04 be 13 ef 84 3e 17 cc 0e 3e
       -0.3301066 -0.12935662 0.2596365 0.13945042
000050 dc 54 ee bd 18 22 87 be 72 28 31 be 98 87 c0 bd
       -0.116372794 -0.263932 -0.17300585 -0.094008625
000060 b0 f0 e5 bd 6e 6a 46 3e 7a d8 5d 3c 4a 93 0f 3f
       -0.11227548 0.19376537 0.013540382 0.5608412
000070 93 a2 f1 3e 48 05 db 3d 8c d8 c2 be b0 42 4f 3e
       0.47194347 0.10694367 -0.38055837 0.20240283
000080 da a9 7f 3e 5c a6 34 be 73 91 31 3e d7 d9 de 3b
       0.24967137 -0.17641586 0.1734064 0.006800871
000090 77 8c cf bd 00 d6 96 3e 2d 21 41 bf f8 ff a5 3d
       -0.101342134 0.29460144 -0.7544125 0.08105463
0000a0 40 b0 c0 3d fd c2 2a 3a f4 a5 c2 3e 77 3b fe bd
       0.09408617 0.0006514041 0.38017237 -0.12413686
0000b0 d2 a4 3c be e0 6e 17 3e 61 08 dd 3e 00 52 47 be
       -0.18422249 0.14788389 0.43170455 -0.19464874

bias f4 [3]
000000 23 c7 a2 3e 1f d0 6b 3e 2d cd df be
       0.31792554 0.2302861 -0.43711224
