Evolution Practicals/2 - Species Practical/model.pt (torch, 3539 bytes, 4 tensors)

weight f4 [16, 16]
-0.05373217 0.22881076 0.058841716 -0.26408 -0.07968492 0.7820389 -0.32364985 0.3294399
-0.015839912 -0.23312531 -0.09043841 -0.1544054 -0.41034228 0.61534613 -0.034690335 0.77166224
0.56378055 0.2795558 0.050876364 0.70410264 0.42483762 0.739962 1.0131632 0.8108533
0.0436323 0.11677652 0.30793723 0.45262334 0.44278544 -0.7227111 0.7700421 -0.5373224
0.02250137 0.050407343 0.042765148 0.1663577 0.09589729 -0.14176767 -0.052019402 -0.03792854
0.1125974 -0.08452606 0.11225884 -0.27668577 -0.071633 -0.13511352 -0.30490652 -0.018219752
-0.31134725 0.12397638 -0.2896942 -0.12166794 -0.2900525 0.15876645 -0.15478387 0.13135083
0.015350563 -0.20728374 0.108663514 0.06296017 -0.15191361 -0.3146306 0.07386811 0.06269611
1.392285 1.2274294 1.1624595 1.1979753 1.0534501 0.11483035 0.68753463 0.22679847
1.4937133 1.2015162 1.455782 1.3750815 1.2003005 0.16467479 2.3079798 0.6104429
2.465518 2.5369866 1.9967417 1.7161181 1.1870112 0.9211292 0.28642714 0.040821373
1.992804 1.6435357 2.1044526 1.3877443 1.0177181 1.6790346 2.9856832 2.5576205
0.020516193 -0.1892406 -0.24046284 -0.18087357 -0.31149307 0.15881482 0.0010730283 0.016446179
-0.24384196 -0.26781756 -0.31846964 0.074651346 -0.23593563 -0.29929245 0.005702167 0.10467673
-0.026497629 0.43139806 0.4312197 0.1561777 -0.1434614 -1.1533991 -0.89282906 -1.0102339
0.26098108 0.45953307 0.36459416 0.24195224 0.110558406 -0.058161344 0.12108453 -0.001127447
5.883347 4.663462 3.8629148 4.0903106 3.3208716 7.312663 5.6984563 4.517329
4.5603366 2.4128966 3.4779067 3.3461866 2.588644 3.024078 7.5164347 4.603268
0.9502311 1.010564 0.82834506 0.28003356 0.30888408 1.8873949 0.18326326 0.6178737
0.49317414 0.26721826 0.708686 0.19401759 -0.003747542 1.3842529 0.9551818 1.7825391
0.6926414 0.237274 0.35339165 1.1764977 0.81968796 1.5920697 1.7831979 1.6584929
0.7231356 -0.0053510433 0.45662868 0.6117334 0.8210725 -0.047397576 1.3533707 0.18687735
0.19075544 -0.006554759 0.20689896 -0.15262689 -0.21898629 0.29874557 -0.10207143 -0.094763264
-0.15417801 -0.091134585 -0.27436864 -0.079332516 -0.17400408 -0.055048477 -0.0966479 -0.19759293
-0.23840252 -0.22464812 0.0982683 0.23276603 -0.09198058 0.22390464 -0.11001539 0.21827433
0.16864017 -0.18393049 0.015600055 -0.11864194 -0.12045893 -0.105048835 0.01274097 -0.13340536
0.5955213 0.852488 0.66065305 -0.30970272 0.18150683 -0.006635766 -1.1203344 -0.42302194
0.3470652 0.38943052 0.63988405 -0.017154511 -0.29764462 1.4900454 0.44313776 1.3306247
0.09100875 -0.17095736 -0.07002711 -0.1096929 -0.14947858 -0.059402466 -0.22227994 -0.05961308
-0.110666305 -0.011671454 -0.036628246 -0.13937029 0.028662384 0.03175798 -0.018136859 -0.152969
-0.030927278 0.12907971 -0.026580293 -0.40053543 -0.18744475 0.65140396 -0.6213725 -0.10909553
-0.20370345 -0.24792106 0.20525895 -0.5295886 -0.16545169 0.9968793 0.10672793 1.0111866
00000000: 4416 5cbd 5e4d 6a3e 0304 713d 7e35 87be
00000010: d931 a3bd b433 483f 6fb5 a5be 59ac a83e
00000020: b4c2 81bc 67b8 6ebe c637 b9bd 731c 1ebe
00000030: 6218 d2be 5387 1d3f 7417 0ebd a88b 453f
00000040: ec53 103f f021 8f3e bc63 503d 1240 343f
00000050: 5184 d93e 266e 3d3f 55af 813f 1594 4f3f
00000060: c8b7 323d 8728 ef3d f3a9 9d3e 3fbe e73e
00000070: c6b4 e23e 9803 39bf 7b21 453f f68d 09bf
00000080: cb54 b83c ee77 4e3d 822a 2f3d ac59 2a3e
00000090: cc65 c43d 8b2b 11be 4c12 55bd f55a 1bbd
000000a0: 7799 e63d 001c adbd f6e7 e53d c2a9 8dbe
000000b0: 53b4 92bd 335b 0abe b51c 9cbe 9741 95bc
000000c0: e868 9fbe 54e7 fd3d cc52 94be 0a2d f9bd
000000d0: c381 94be ac93 223e aa7f 1ebe d580 063e
000000e0: ee80 7b3c 3042 54be fa8a de3d 43f1 803d
000000f0: 3e8f 1bbe 4317 a1be 2a48 973d d166 803d
00000100: 6536 b23f 681c 9d3f 79cb 943f 4157 993f
00000110: 74d7 863f 2d2c eb3d 4502 303f dc3d 683e
00000120: ff31 bf3f 48cb 993f 1157 ba3f ac02 b03f
00000130: 72a3 993f 82a0 283e f1b5 1340 fc45 1c3f
00000140: 0ccb 1d40 fd5d 2240 3b95 ff3f c2a9 db3f
00000150: fcef 973f 20cf 6b3f 94a6 923e 5034 273d
00000160: 3414 ff3f 615f d23f 5aaf 0640 9ba1 b13f
00000170: 9644 823f 9bea d63f 6f15 3f40 0eb0 2340
00000180: 9311 a83c 4ac8 41be e43b 76be ec36 39be
00000190: 057c 9fbe 5aa0 223e dba4 8c3a 23ba 863c
000001a0: b5b1 79be 621f 89be 740e a3be cee2 983d
000001b0: 1c99 71be dc3c 99be 3ed9 ba3b c160 d63d
000001c0: 8e11 d9bc 35e0 dc3e d4c8 dc3e 0ced 1f3e
000001d0: 8ce7 12be 95a2 93bf 7290 64bf 584f 81bf
000001e0: 509f 853e eb47 eb3e 16ac ba3e 54c2 773e
000001f0: 726c e23d 973a 6ebd 2bfb f73d d8c6 93ba
00000200: 6144 bc40 153b 9540 ff39 7740 d3e3 8240
00000210: 2989 5440 5601 ea40 c159 b640 f68d 9040
00000220: 47ee 9140 e66c 1a40 0696 5e40 ec27 5640
00000230: 58ac 2540 7e8a 4140 a286 f040 f94d 9340
00000240: 5842 733f 295a 813f 6c0e 543f 8f60 8f3e
00000250: 0e26 9e3e 2896 f13f 5da9 3b3e f92c 1e3f
00000260: 5281 fc3e d5d0 883e 726c 353f 8cac 463e
00000270: 5299 75bb 332f b13f cb86 743f 3e2a e43f
00000280: f250 313f f5f7 723e c0ef b43e 7a97 963f
00000290: 12d7 513f f1c8 cb3f d43f e43f 7f49 d43f
000002a0: 6a1f 393f ce57 afbb 3ccb e93e 8f9a 1c3f
000002b0: cf31 523f f623 42bd 403b ad3f c75c 3f3e
000002c0: 6555 433e 4ec9 d6bb 52dd 533e 394a 1cbe
000002d0: f13d 60be 2ef5 983e d30a d1bd 3e13 c2bd
000002e0: d7e0 1dbe c5a4 babd 0c7a 8cbe 1679 a2bd
000002f0: 202e 32be 837a 61bd 56ef c5bd cd55 4abe
00000300: ca1f 74be 280a 66be e440 c93d 385a 6e3e
00000310: 5060 bcbd 4247 653e c04f e1bd 4e83 5f3e
00000320: 02b0 2c3e 4658 3cbe 6097 7f3c 8cfa f2bd
00000330: 2cb3 f6bd d823 d7bd 80bf 503c 6a9b 08be
00000340: 1574 183f a73c 5a3f 8f20 293f 5b91 9ebe
00000350: eddc 393e d770 d9bb 1e67 8fbf 5596 d8be
00000360: 88b2 b13e 7063 c73e 71cf 233f 9e87 8cbc
00000370: e064 98be cfb9 be3f f4e2 e23e e951 aa3f
00000380: cc62 ba3d 720f 2fbe 606a 8fbd aca6 e0bd
00000390: ea10 19be 0050 73bd 5a9d 63be d82c 74bd
000003a0: 04a5 e2bd a039 3fbc 8007 16bd 16b7 0ebe
000003b0: 60cd ea3c a814 023d c093 94bc e8a3 1cbe
000003c0: 345b fdbc 792d 043e eabe d9bc fb12 cdbe
000003d0: 84f1 3fbe 69c2 263f 4512 1fbf 7a6d dfbd
000003e0: a397 50be 05df 7dbe 672f 523e 1e93 07bf
000003f0: 2b6c 29be 7b33 7f3f 2c94 da3d 906e 813f

bias f4 [16]
-0.061632816 0.0642161 -0.1123593 -0.2422343 0.76970756 1.0370083 0.03343104 0.021845344
1.879115 0.08515761 -0.13044669 -0.05413275 0.026761532 0.36878705 -0.15506727 -0.123440556
00000000: b172 7cbd bb83 833d a21c e6bd 450c 78be
00000010: 8e0b 453f b0bc 843f fcee 083d 02f5 b23c
00000020: d786 f03f 1d67 ae3d d193 05be 4dba 5dbd
00000030: 003b db3c a8d1 bc3e f4c9 1ebe 67ce fcbd

weight f4 [3, 16]
-0.11007991 -0.82916343 -0.062057428 -0.1217208 -1.8845917 -3.381265 -0.045129858 0.22505626
-6.5744486 -2.1330178 -1.9409381 -0.1614184 0.094343305 -0.37718856 -0.07362914 -0.40961456
0.37016582 -0.8549906 0.23082103 -0.032299723 -2.6047719 -5.107207 -0.1408029 -0.44578776
-5.892226 -0.9744225 -1.4550741 0.23426026 -0.09791723 -0.44730368 -0.16998386 0.2759411
0.06416072 -0.217055 0.17130089 -0.1319108 -2.254064 -7.601669 -0.09018538 -0.28460723
-4.880367 -2.2106538 -0.60545087 -0.041156005 0.08482018 -2.0744226 0.0849379 -0.5724788
00000000: 9371 e1bd 0e44 54bf ee2f 7ebd c148 f9bd
00000010: 4d3a f1bf a566 58c0 16da 38bd 2675 663e
00000020: e261 d2c0 5d83 08c0 a970 f8bf dd4a 25be
00000030: 1037 c13d dc1e c1be e0ca 96bd 00b9 d1be
00000040: 6086 bd3e aae0 5abf 595c 6c3e b74c 04bd
00000050: 95b4 26c0 3d6e a3c0 a32e 10be 4b3e e4be
00000060: 1e8d bcc0 c173 79bf de3f babf ece1 6f3e
00000070: d488 c8bd fd04 e5be 4010 2ebe 2748 8d3e
00000080: b266 833d aa43 5ebe 8069 2f3e a013 07be
00000090: 9642 10c0 df40 f3c0 1db3 b8bd 0ab8 91be
000000a0: f72b 9cc0 5a7b 0dc0 d4fe 1abf 3393 28bd
000000b0: 34b6 ad3d 57c3 04c0 ecf3 ad3d f88d 12bf

bias f4 [3]
0.005295592 0.04979499 -0.26009986
00000000: a586 ad3b d5f5 4b3d cf2b 85be
