Evolution Practicals/2 - Species Practical/model.pt (torch, 45319 bytes, 6 tensors)

weight f4 [128, 16]
00000000: e3f2 263e 81b0 62be 3d76 82be fa55 6d3e
00000010: 2cf4 0abd acc4 8b3e 6af8 d93d dd2b c53c
00000020: 1dd1 24bd 08de 89be 8ea2 7dbe ea32 3a3e
00000030: e09c 553e dbbe 6dbe 4417 3f3e 3f7a 9bbe
00000040: eae9 2e3e 4a92 083e 6140 e43d 7828 5a3e
00000050: b63e e03d bca7 0e3e 2b5d d7bd 6d44 8cbd
00000060: 8bbe e63d e152 6c3e 3047 5a3e b76a 0ebc
00000070: 38b4 c2bd 2af7 a83c f1d2 44be 2053 5e3c
00000080: 49a8 83be 0272 503e b54f 243e b671 97bc
00000090: 86e8 083e cd2f b3bd 30f1 bd3d 9c0b 0e3e
000000a0: d314 2cbc 1dd7 833e 1f58 2e3d b0e8 1bbe
000000b0: d82c 45be 66f1 12be c9f3 e23d 5c8f 25be
000000c0: caeb 2bbe d71f 31be 8a2d 083e df3a b13d
000000d0: b942 f1bd 329e c23d 1921 843c 8639 5d3d
000000e0: c8af ce3c 7cf4 573e d85c 38be 0568 f7bd
000000f0: c1ef 56be 01f4 303e 9897 9a3d eef1 9dbd
00000100: 9d3b 67bc a8ed 223d 1935 82be 27e8 513e
00000110: e4ee 733e 82cb 923d 7548 323e 5b9b 343d
00000120: 2a78 12bc da54 65bd 5d3b 1dbe 2cba 4fbe
00000130: 072c 9b3d fdd2 493e 1842 873d daa6 afbb
00000140: c0f1 0b3e 4d0a 193e 2b19 ffbd a9e5 793d
00000150: c8c0 143d 0e80 b93d 6cea c5bd d0cf 65be
00000160: 796f 1c3e 0617 29bd 25ba 783e ba44 fdbd
00000170: e04d a63d c179 493e 2f7d 52b9 53a3 e23c
00000180: e06d 193d 904d 0a3e c8fc 29be 2693 403e
00000190: fe5a 13be 0079 7fbd f0e5 52bd 4003 41be
000001a0: 70ff a5bc 8028 b63b 5065 8abc 7271 28be
000001b0: ea3e 48be a618 74be 6095 6ebd 7022 73bd
000001c0: a8b7 9abd c4a0 2dbe b27c 693e 08d3 963d
000001d0: 9c4f a03d 18f4 e93d 1c63 e6bd 78d5 493d
000001e0: e07d 2dbd 98ab d0bd a076 b4bd 7eaa 65be
000001f0: 6ceb d9bd 0c8b 93bd 74e9 39be 9efc 0f3e
00000200: e992 2e3e b2e7 153e 8549 33be 0af7 c43d
00000210: c06a 35be 3619 7c3c e97a 03be b1ed 0cbe
00000220: f9e1 6ebe 9087 7e3e 53ec 99bd 854e 4e3e
00000230: bab1 5d3e fa1e 593e 14df 0cbe 3630 3abe
00000240: 85bd 293e 9471 513e 42be 27be 51e1 81be
00000250: 9125 da3d c04b 75bd b567 b23d 9078 1a3e
00000260: 9fc3 293e 96e1 42be b8db 5c3e c64d 46be
00000270: b8d5 da3b 4a7e e53d 7cd6 463d b0c7 9ebd
00000280: 8011 31be b836 383e 5c6f 893d 0c51 f63d
00000290: e2d5 443e a6bd 3abe 6449 713e d85b 0dbd
000002a0: 8c1c 3c3e d266 47be 9c7b 89bd 0648 013e
000002b0: d037 c1bd 60de 09bd ba21 28be 1414 08be
000002c0: 07a4 69be 13cc da3d a537 2dbe 772b 2b3e
000002d0: c4a3 213e 8800 903e a6b5 e5bd 39e8 65be
000002e0: 1845 c0bb 17cf 64be b741 803b bfd6 d6bd
000002f0: aa72 713e 21d4 6f3d 7f80 f03d 2065 f0bd
00000300: 41b6 723e 1e72 1dbe 3d39 373c 2d52 58be
00000310: 5282 66be 5596 e53d d362 333e 17cc a53d
00000320: 26e3 efbd a967 643e d510 e5bd 0c50 4c3e
00000330: 16b8 343e 250e 9bbd 0414 e5b9 5a43 0b3e
00000340: da02 933d d900 ce3b ea1d adbd fdc3 4a3b
00000350: 3632 27be 3e01 bdbd c0af 39be 1b12 abbc
00000360: 6794 763e 9523 1e3e c4f2 37bd 9792 91bd
00000370: 4c15 be3d 374f 85bd 138c 5f3e 4601 4a3b
00000380: c859 6b3e 04d3 49be a00a b3bd d851 9e3d
00000390: 1c44 313e 54fd febd 6093 89bd 186d f33d
000003a0: b228 73be 20f3 95bc e040 26be 7474 42be
000003b0: e0f4 593e 9290 6cbe d409 3cbe 8c6f ccbd
000003c0: 64e2 c23d caec 7bbe 70fb 88bd 0049 3f3e
000003d0: 683c dfbd 7c61 3fbe 5c81 8f3d 002a 88bd
000003e0: bc3f ffbd e4af 6fbe 6449 41be 209a b3bd
000003f0: 6e82 6b3e f0e0 babc 3a01 5ebe 6850 5d3e
0.16303591 -0.22137643 -0.25480834 0.23177329 -0.033924267 0.27298486 0.10643084 0.024068767
-0.04023849 -0.2692721 -0.24769041 0.18183485 0.20860624 -0.23217337 0.18661219 -0.30366704
0.17081419 0.13337055 0.11145092 0.213045 0.10949461 0.13931173 -0.10515817 -0.06848989
0.11266812 0.23078491 0.21316218 -0.008692435 -0.0950703 0.02062567 -0.19221093 0.013569623
-0.2571433 0.2035599 0.16046031 -0.018486839 0.1336995 -0.08749352 0.092745185 0.13871616
-0.010503012 0.25750056 0.042564508 -0.15225482 -0.19255388 -0.14349899 0.110816546 -0.16167969
-0.16789165 -0.17297302 0.13298622 0.08653807 -0.117803045 0.095028296 0.016129063 0.054009937
0.025230303 0.21089357 -0.18004167 -0.12080387 -0.20989896 0.1728058 0.075484455 -0.0771216
-0.014113334 0.039777428 -0.25431135 0.20498715 0.23821598 0.07167722 0.17410453 0.04409347
-0.008939782 -0.055989124 -0.15354677 -0.20285863 0.07576757 0.19709392 0.06604403 -0.0053604664
0.13666439 0.14945336 -0.12455972 0.061010037 0.036316663 0.090576276 -0.09663853 -0.22442555
0.15276898 -0.041281722 0.24289759 -0.12366624 0.08120322 0.19675352 -0.00020073795 0.02766577
0.0374583 0.1350615 -0.16600335 0.18806133 -0.1439018 -0.062371254 -0.051488817 -0.18848896
-0.020263404 0.005559027 -0.016894013 -0.16449526 -0.1955525 -0.23837528 -0.058247924 -0.059359014
-0.07554561 -0.16955858 0.22801474 0.0736447 0.07827684 0.1142351 -0.11249372 0.049275845
-0.042356372 -0.10188979 -0.088116884 -0.22428319 -0.10640606 -0.072042555 -0.18155462 0.1406121
0.1704823 0.14639166 -0.17508514 0.096174315 -0.17716503 0.01538687 -0.12839855 -0.13762547
-0.23328389 0.248564 -0.075157784 0.2014714 0.21649829 0.21203223 -0.13756973 -0.18182454
0.16576202 0.20453483 -0.16381171 -0.25367215 0.106516965 -0.059886694 0.08711187 0.15085053
0.1657853 -0.19031367 0.21568191 -0.19365606 0.0066783093 0.11205728 0.048544392 -0.07752931
-0.17291832 0.17989624 0.06710693 0.12027177 0.19222215 -0.18236408 0.23563153 -0.034511417
0.18370265 -0.19472817 -0.0671303 0.12625131 -0.094344735 -0.03365934 -0.16419116 -0.13288909
-0.22816478 0.10683455 -0.16915758 0.167158 0.15785128 0.28125405 -0.11216287 -0.22451867
-0.0058676116 -0.22344624 0.003914084 -0.10490178 0.23578897 0.05855191 0.11743259 -0.11738038
0.23702337 -0.15375564 0.01118308 -0.21125098 -0.22510651 0.11210314 0.17518167 0.08095568
-0.11713247 0.22305168 -0.11184851 0.1995241 0.17648348 -0.07571057 -0.00043693196 0.13599911
0.07178278 0.006286722 -0.08452971 0.0030939572 -0.16327748 -0.092287526 -0.1813345 -0.020882657
0.24080049 0.15443261 -0.044909254 -0.07108038 0.09281406 -0.0650925 0.21830778 0.0030823513
0.22983468 -0.19709402 -0.08742261 0.07730454 0.17311138 -0.12450662 -0.06717563 0.11886042
-0.23745993 -0.018304408 -0.16235685 -0.18989736 0.21284819 -0.23102024 -0.18363124 -0.099822134
0.09515837 -0.24602047 -0.06688583 0.18680191 -0.109001935 -0.18689531 0.07007095 -0.06648636
-0.12463328 -0.2340694 -0.18875653 -0.087696314 0.22998974 -0.022812337 -0.21680155 0.21612704

bias f4 [128]
00000000: 49a1 1dbe e7a9 69be 0e9d 09be 667e 053d
00000010: ba3e 4fbe 64c6 c23d d0ca 16be ac09 acbd
00000020: 504f 8abd c963 643e beec 313e b515 00be
00000030: 3c11 d03d 22c2 b4bd 3c5a 0c3e 3e17 4ebe
00000040: 4c20 2abe 00b2 04bc a6c8 113e 2fa3 043e
00000050: e207 1abe 2ddb 35be 41ae 243d 94bb 73be
00000060: 77c7 2e3e dc87 a4bd dc62 ac3c 2825 053e
00000070: 54db a1bd 7099 6d3d d76f cfbd f0dd 1c3e
00000080: 2bf5 a73d 8692 493c 3c6b 38be 19f6 dbbd
00000090: b286 4f3e 8e01 3ebc 50fb 443e a9f8 893d
000000a0: 78e6 9a3d ccb3 20bd b0df 70be cbc3 273d
000000b0: 5a31 fcbc 667d 4bbe 3ed1 7e3e a25a f2bd
000000c0: d87e 2e3d ae36 043e a924 3e3e 70e6 093e
000000d0: 5da6 313e 01b9 263e 3290 53be 7c01 ea3d
000000e0: d698 7dbe 6b91 e83d ae33 ff3d 1a25 1dbe
000000f0: d0c0 953d 0059 803a 32ca 5cbe 3e77 4bbe
00000100: 5886 623e 84b9 a13d 5e10 53be 0043 46be
00000110: e8e5 283e 66e9 0d3d 14fb 46be fcac cd3d
00000120: 2249 3d3e 756d 7abe 51c0 3dbe 4f87 413e
00000130: ae60 413d 126f 233e 72df ccbc 91f5 a1bd
00000140: 5c87 463d e210 7abe 6ff0 27bd 842f 833d
00000150: f7a6 043e 42d9 1abd cfdc 373e d02a d13c
00000160: f2ae 6e3e d03b 4d3d d7fe 383e 7619 d4bd
00000170: dc6f 023d 4ea0 423e f6da ddbd 00c9 51bd
00000180: e079 9b3d 3000 83bc b27c 50be dd00 2b3e
00000190: 5fe9 c3bd 96db 17bd d0a0 373e 9372 15be
000001a0: 9632 6abe dcba e7bd e05e aebc 7bfd 3fbd
000001b0: f5f5 323e 86fa 393e d7e8 0cbd 102e 7f3e
000001c0: 3f4e d13d 9369 5cbd 412b 633e 0a69 5ebe
000001d0: 6f60 12be 863f 08bd c638 cabc 20d9 58bd
000001e0: 22ef 47be 0638 40be 61b6 5dbe e288 62be
000001f0: f565 433b 5c6e 25be ac7d 323e ee76 38bc
-0.15393557 -0.22818719 -0.13438818 0.032591246 -0.20238772 0.09510496 -0.14725804 -0.08400282
-0.06753409 0.2230369 0.17375466 -0.1250828 0.10159537 -0.088260904 0.13706297 -0.20126054
-0.16613883 -0.008099079 0.14236698 0.12952875 -0.1504207 -0.1775939 0.040205244 -0.23802024
0.17068277 -0.080337256 0.021043234 0.13002455 -0.07903162 0.058007658 -0.10128754 0.15319037
0.08201059 0.012303 -0.18009657 -0.10740299 0.20266226 -0.01159705 0.19236493 0.06736881
0.0756349 -0.039233968 -0.2352283 0.040958207 -0.030785251 -0.19872054 0.24884507 -0.11833693
0.042601436 0.12911484 0.18568672 0.13466811 0.17348619 0.16281511 -0.20660475 0.11426064
-0.24765334 0.11355861 0.12461029 -0.15346184 0.07312167 0.0009792149 -0.21561506 -0.19869706
0.2212156 0.078967124 -0.20611712 -0.19361496 0.16493952 0.034646414 -0.19431716 0.1004276
0.18484929 -0.24455817 -0.18530394 0.18899272 0.04721134 0.15960339 -0.02500889 -0.07908166
0.048468933 -0.24420503 -0.04100078 0.06405547 0.12954317 -0.03780485 0.17955326 0.02553311
0.23308924 0.05010587 0.18065964 -0.10356419 0.03184496 0.19006464 -0.10832779 -0.05121708
0.07591605 -0.0159913 -0.20360067 0.16699548 -0.095659964 -0.037074648 0.17932439 -0.14594488
-0.2287086 -0.113149375 -0.021285474 -0.046872597 0.17476638 0.18161973 -0.03440174 0.24919915
0.102200024 -0.05381162 0.22184469 -0.21719757 -0.14294599 -0.033263706 -0.024685275 -0.05294144
-0.19524816 -0.18771371 -0.21651603 -0.22122529 0.002981541 -0.1615538 0.17430753 -0.011258824

weight f4 [64, 128]
00000000: 7910 20bd 86ed 21bd 6cd3 cbbd a19d 4bbd
00000010: 5972 d83c 6449 9f3d 4710 853d 3903 803d
00000020: 692d 973d 4b21 8c3d 06c4 aa3d d74a 93bd
00000030: e1a2 863d 54be 893c b701 7e3d 33f1 59bd
00000040: 6832 203d ba20 f03c 2bc2 a4bd 3e8e 863d
00000050: 7aef bbbc 95af b23d dd1e 6f3b 0b00 1cbd
00000060: 209b 0f3d cba1 8a3d e93b 773a c7aa 863d
00000070: 73fb 9fbc d362 4c3c 149c 1d3d 23a2 853d
00000080: ff8e 71bc 5cb0 a23d 9e6e 693d 6bfa a03d
00000090: d9de 043d d77e 173d 86a9 883c 6b07 b33d
000000a0: 737c 833d 41ca 263c a915 c5bb ab58 48bd
000000b0: 6e86 963d 9f10 58bd 5b38 9a3d d313 b63d
000000c0: b19a 0dbd 2fc8 94bd 5ef4 7f3d 151e bc3c
000000d0: 9b88 173b a1bf 4d3d 973d 56bd 2079 b3bc
000000e0: e557 3d3d 066b e33c 070b 173d a3a1 f63c
000000f0: ac96 78bd 3215 69bd 0db7 88bd 4d6f 03bd
00000100: 82ba 2fbd 26c9 9c3d f54e 6bbb 7ad8 a83d
00000110: 2d15 8c3c ac5f 133d 8561 bcbd 37b3 893d
00000120: f1e7 373b 5eff 32bd bfa3 233c 5fd3 893d
00000130: ac85 b3bd 1232 1a3d 3a10 32bd 7fd0 d1bd
00000140: 863f b0bd dc07 3a3c 8434 5a3d 8b66 1d3d
00000150: 46f3 52bd 07d2 b3bc d493 52bd d1f1 09bd
00000160: e399 95bd 4dd9 7bbd d57c bcbc 7e26 53bd
00000170: ff66 b2bd 0f5b 603d 4cd5 53bd 950b 713d
00000180: c6a2 923d f136 d93c 58b2 df3c 9436 de3d
00000190: 1c82 843d 46ee 1ebd 8844 593d d46f 773b
000001a0: 6eeb 4d3d 5ca7 683d ecb2 6dbd 30d7 9abc
000001b0: 6d89 afbd f761 2fbc a45e 67bd 9ce6 51bd
000001c0: b31d 2c3c 529b 84bc ea76 85bd e288 21bd
000001d0: d408 cf3c 4049 65bd b4df f13c fc92 32bd
000001e0: b280 4e3d 1d9b 073d 562a ebbb f404 07bc
000001f0: d953 02bd 6199 3a3c 47b9 f13c 051b 2d3c
00000200: 7325 8f3d 1e9f a7bd 7887 e1bc 9322 4b3c
00000210: 1870 543d e523 b83c c4a9 0e3d c212 e83c
00000220: c6d1 123c b45c a83c 6e96 323c 89eb 90bc
00000230: ee3a 89bd 0435 6a3d 94a7 453d db82 b1bc
00000240: b80e 47bd 3952 37bd 205f 893d c708 a0bd
00000250: c2be 75bc a449 06bd 0c84 793d 76ab 2cbc
00000260: ac99 31bc 5f34 97bd 86f8 a6bb 4d33 a73c
00000270: 0f17 81bd d4a4 9f3b 79e0 21bd fc44 443c
00000280: be2f afbd c9dc 02bd ebbd e33b 8a37 0a3d
00000290: 024f dfbc 959e c8bc ef08 0e3d 7a31 0a3d
000002a0: c179 b53c 425b 90bd e00b ff3c c929 a9bd
000002b0: 27f4 15bd 3ea7 4a3d f2f3 2cbd eb25 5ebd
000002c0: 0ef9 46bc e00e 0abd 26a6 6fbd db41 71bd
000002d0: 405c 963c 77bd 8ebd 8c58 443c a01d 88bd
000002e0: d37c 4abd b9ef 06bd b4af 2b3d 6011 b13d
000002f0: 727b 9ebc 2c1d 8ebb bc17 dab9 49b1 50bd
00000300: 1cb9 5d3d 543e a9bd 2c81 e93c e5d8 b3bc
00000310: 7907 8c3d 4eb8 d8ba d7db a3bd 9e80 823d
00000320: d90d a4bd 63ad 7b3d e0c3 4a3d f38f ec3c
00000330: 016b 283d 42d3 8ebd fdf2 083c d2ef 2ebd
00000340: 2c72 af3c 2819 98bd dc01 503d 9380 00bc
00000350: 372f 963d 45a4 5c3d 0d11 a7bd d946 58bd
00000360: a239 9d3d d25c 003d 29c4 0b3d 41c6 49bd
00000370: 88ab 403d a2ea 0cbd c50b 1ebd 5f1a 843d
00000380: ae68 b2bd 7df0 083d 7f33 8f3d dc2d d23b
00000390: 5664 843b 1147 7abd f671 5ebd 7c19 783d
000003a0: 4aa0 8a3a fe49 24bd 1e74 29bb 8c9b 153d
000003b0: af46 433d a913 c7bb 9778 ae3d a1fd 86bd
000003c0: d432 1e3d 1869 603d e799 d63c 9772 ccbc
000003d0: 4ce4 993d f3c2 e63a e196 ebbc 414c b23d
000003e0: 742e a33b a8ad 1bbd 23bc b0bb 3672 9b3d
000003f0: 9f3d a43d ffa5 1cbd 55ae a6bd 5243 413d
-0.03907821 -0.03953316 -0.09952435 -0.049710874 0.026421713 0.0777767 0.06497245 0.06250615
0.07381708 0.06842288 0.0833817 -0.07192009 0.065740354 0.016814388 0.062013354 -0.05320854
0.03911057 0.02931248 -0.08044847 0.06570099 -0.02294134 0.08724896 0.0036486902 -0.03808598
0.035060048 0.06769141 0.00094312296 0.06575542 -0.01952908 0.012474733 0.038478926 0.06525066
-0.014743566 0.07943794 0.05699026 0.078602634 0.032439087 0.0369862 0.016682398 0.08741649
0.06420221 0.010180057 -0.006014545 -0.048912685 0.07349859 -0.052750226 0.0753028 0.088905
-0.034571353 -0.072647445 0.062488906 0.022963563 0.0023122195 0.05023158 -0.05230483 -0.021908343
0.0462264 0.027760994 0.03687575 0.030106371 -0.060690567 -0.05690498 -0.06675539 -0.032088567
-0.042902477 0.076555535 -0.0035905216 0.08244415 0.017099941 0.03597991 -0.09198288 0.06723636
0.0028061832 -0.04370057 0.009987771 0.06729769 -0.0876573 0.037645407 -0.043472506 -0.102448456
-0.08605866 0.011354413 0.05327274 0.03842787 -0.051501535 -0.021950735 -0.05141051 -0.03367788
-0.07304742 -0.06148653 -0.023008743 -0.05155038 -0.08711051 0.05477434 -0.051717088 0.058848936
0.07159953 0.026515456 0.02730672 0.10850254 0.06470129 -0.038801454 0.053043872 0.0037755864
0.05027335 0.05680023 -0.05803196 -0.018901438 -0.08571134 -0.010704509 -0.05648674 -0.051245317
0.010505128 -0.016187344 -0.06516822 -0.039437182 0.025272764 -0.05597806 0.029525615 -0.043597206
0.050415702 0.033106912 -0.0071766777 -0.008240927 -0.031818245 0.011389107 0.029507292 0.010565524
0.06989565 -0.08184646 -0.027530417 0.01239838 0.051864713 0.022478053 0.03482987 0.028329257
0.008961147 0.020552017 0.010900123 -0.017690437 -0.06700693 0.057179466 0.048255518 -0.021668842
-0.04859802 -0.044756148 0.06707597 -0.07814174 -0.0149990935 -0.032785073 0.060916945 -0.010538926
-0.010839861 -0.07383036 -0.0050955443 0.020410204 -0.06303226 0.004871944 -0.039520714 0.011979338
-0.08554028 -0.03194884 0.00695013 0.033744372 -0.027259354 -0.02448968 0.03467649 0.03373859
0.022152783 -0.07048656 0.031133592 -0.08259923 -0.036609795 0.0494759 -0.042224832 -0.05423538
-0.01214434 -0.033705592 -0.05850806 -0.058900695 0.018354535 -0.06969731 0.011984002 -0.066462755
-0.049435448 -0.03294346 0.04191561 0.08645892 -0.019345973 -0.0043369737 -0.00041597884 -0.050950322
0.054131612 -0.08263841 0.028503977 -0.02195401 0.06837363 -0.0016534419 -0.080009155 0.06372188
-0.08010454 0.06144465 0.049503207 0.028877234 0.041117672 -0.06973888 0.008358714 -0.04270918
0.021416746 -0.07426673 0.050783023 -0.0078431545 0.07333224 0.053867597 -0.08157549 -0.05280194
0.07677008 0.03133852 0.03412262 -0.049261335 0.047038585 -0.03440345 -0.038585443 0.064503424
-0.08711372 0.033432472 0.06992244 0.0064141583 0.0040402813 -0.06110293 -0.0543079 0.06057118
0.0010576334 -0.040109627 -0.0025856565 0.036525294 0.04767483 -0.0060753417 0.085190944 -0.065913446
0.038622692 0.054787725 0.026196433 -0.024956984 0.07514247 0.0017605707 -0.028758468 0.087059505
0.004979903 -0.03800741 -0.0053935214 0.075901434 0.08019566 -0.038244244 -0.0813872 0.047183342

bias f4 [64]
00000000: 3c5e 3cbd eb4e 83bb e69f 263d 1a1d de3c
00000010: 7fe2 973d 0acd 41bd 5265 51bc 260c fd3c
00000020: 9347 823c 9fec 553d f899 89bc 61c3 86bd
00000030: bc9e b0bb 39bb dc3c 4121 68ba d384 35bd
00000040: 839a 1d3d 89ef 673b cf9f 67bd a9bd 163c
00000050: 073f 533d 1695 163d f519 4e3d 0294 5abc
00000060: 13b3 503d 715e 18bd dd4b 23bc 2ba0 22bd
00000070: 67dd 10bd 6867 983d d8e8 7bbc 84db 0dbd
00000080: 3373 b4bc e8fd 893b 7de2 ed3c 7c68 2d3d
00000090: 3748 c63c 856b a8bd 064f e0bc 98e8 cb3c
000000a0: ad0f 993d 7aa1 0a3d 57b2 8cbc c6f8 fe3c
000000b0: 89d6 1f3c 8475 5ebd d61a 87bc 0c54 e53c
000000c0: 88d8 bd3c df1e 7d3d ed73 983d c482 b73c
000000d0: 30a4 8fbd 6d03 5bbd 8c59 9d3d 4c75 9fbd
000000e0: 8c88 0abd bc13 15bd 460d 173d 80af 9bbd
000000f0: 8325 08bb 2ae8 a0bd cb31 573d c840 4bbd
-0.045988306 -0.0040072105 0.040679835 0.027113486 0.074162476 -0.04731468 -0.012780504 0.030889582
0.01590327 0.052227613 -0.01679705 -0.06580234 -0.0053900164 0.026944743 -0.0008855053 -0.044316124
0.038477432 0.0035390577 -0.05654889 0.009200492 0.05157378 0.036763273 0.050317723 -0.013340952
0.05095203 -0.03719944 -0.009966818 -0.03970353 -0.035367396 0.07441598 -0.0153753385 -0.034633175
-0.022027588 0.004211176 0.029038662 0.042335972 0.024204357 -0.08223633 -0.027381431 0.024891183
0.07473693 0.033845402 -0.017174883 0.031124484 0.009755739 -0.05431129 -0.016492289 0.027994178
0.02317454 0.06179702 0.07443986 0.022401221 -0.07013738 -0.053470064 0.07683095 -0.077860445
-0.033821627 -0.036395773 0.036877893 -0.07601833 -0.0020774312 -0.07856782 0.05253772 -0.049622327

weight f4 [3, 64]
00000000: 3e8d b1bd 4667 ac3a 2406 6f3d 2c58 7fba
00000010: 00ec 3639 e23e 3dbd d0c5 1bbd b685 a3bd
00000020: 0bcd 1e3d 9b40 00be e4f2 b5be 2446 5ebd
00000030: 9538 433d 6cd6 38bd 66c2 c93d 1152 1f3d
00000040: d7ac 623e 7f61 db3d 006d 89be f862 3d3d
00000050: daaf 043e ea63 883d 0fa7 0dbb 3d92 b63d
00000060: dc30 f53d 5810 9fbd 143c 08be 302f b3bd
00000070: 48c0 243d c0bb f13d af07 8abd a52e 93bd
00000080: 3d59 77bd 0a3c e73d 325d 2f3d 28fb f43d
00000090: f8af b73e 7617 2d3e 4a39 383e 1e37 d33d
000000a0: 573a 4d3e 5777 27be 38d1 0abd 41d6 b9be
000000b0: 3d33 a3bd 496d e13d 40b1 423d d680 aebd
000000c0: 1483 d23d b9dc 0bbe 7532 91bd 8f99 063b
000000d0: 7f2b 8cbd 859e cc3c 1af8 da3a de27 81bd
000000e0: e619 833d ba41 b53d 00aa d13b 0add 74bc
000000f0: f5e6 1dbd bafd c3bd 6018 a1bd 9a8b 323e
00000100: 5a55 213d cdd6 35bd 5e06 933d d8f4 46bb
00000110: 8873 d43d 18d6 df3d 309e 933d 6b18 8a3e
00000120: b4a1 da3d 2e66 41be d5fe 6a3e 4a55 833d
00000130: 8558 aabc fee0 8fbd 0004 feba b2a2 003d
00000140: 7a0f 443e 3eda c8bc 70c2 b93c 024a efbd
00000150: a940 aebb 9c57 5c3d c23d bb3d fb2e 4f39
00000160: a209 f93d 3803 273d fbc6 313e 0880 d1bd
00000170: f383 91bd 7ce6 c7bd cd1b 57bd 2b8a 23be
00000180: 8fe6 1ebd 0e52 ed3d be5d 6c3d 66a9 3bbe
00000190: 38b4 a93c 5601 9dbd 817c 8d3c 3eff 07be
000001a0: 4b20 ffbd d97f 883d 3085 ba3d cf2e 143d
000001b0: 8d45 f6bd 58f7 43bd 924a 9fbd 5e2e 89bd
000001c0: 7c40 54bd 196b 173d 7ec0 49bd bb89 c83c
000001d0: 2275 d5be 8f16 d3bd 99fd b23d f5fd 583d
000001e0: 6326 d23c 584f 4bbd 7884 503d f041 afbd
000001f0: d395 4ebd c28b 5fbd 5cb7 01bc e903 0d3e
00000200: 6311 cc3d 7cb3 da3d 348d ee39 3b51 6abc
00000210: de92 f4bd 2dc8 babc 268a d83d dde9 87be
00000220: d773 cabb fc31 373e f0b8 823e 9ca1 fdbd
00000230: f147 803b 08db a83c 242a 9f3d b91a b6bd
00000240: 0598 5fbe 4ad1 953d d6ad 223c a5d1 fcbd
00000250: d887 afba 8075 63bd b792 403d b5b4 573d
00000260: 60ed f63b 0a0a bd3d cd54 0dbb 5080 af3d
00000270: 96be 7ebd 1056 713c 0b6e d03d 2b6f 173c
00000280: 71e6 c13c f0e5 703d 858f acbe d466 4ebc
00000290: 7bb7 7dbe 34c9 69be 6bf0 41be 0b41 bcbd
000002a0: 2134 2fbe bd40 1c3d b8bd b6bc d60e b83e
000002b0: b782 fcbd 044d 9abd 7ff2 a4bd c4ea 103d
000002c0: a05d d2bd a78f f0bd 42a6 fd3d 034e 0ebd
000002d0: 82a8 9c3e 2111 043d cd6d 01bd 3dbc bd3d
000002e0: 6cab a1bd d420 ecbd c05b abbd d723 1dbd
000002f0: 328a 103d e145 4c3d d149 e0bd 23ae 85be
-0.08669518 0.0013153336 0.058355466 -0.00097406167 0.0001744479 -0.046202548 -0.038030446 -0.07984488
0.038769763 -0.12524645 -0.35536873 -0.05426611 0.047661383 -0.045126364 0.09851532 0.038896624
0.22136246 0.10711955 -0.26840973 0.046236962 0.12957707 0.06659682 -0.0021614467 0.089146115
0.1197221 -0.07766789 -0.13304168 -0.08749235 0.040222436 0.118033886 -0.06739747 -0.07186631
-0.06038784 0.112907484 0.042813487 0.11961967 0.3587644 0.16903481 0.17990604 0.10313247
0.20041786 -0.16354118 -0.033890933 -0.36296275 -0.07968757 0.110071726 0.04753232 -0.08520667
0.102789074 -0.13658418 -0.07089702 0.0020538305 -0.06844234 0.024977932 0.001670602 -0.06306432
0.06401424 0.08850427 0.0063984394 -0.014945278 -0.038550336 -0.09569879 -0.07865977 0.17436066
0.03938804 -0.044394303 0.07178949 -0.003035834 0.10373598 0.10929507 0.07207906 0.26971754
0.10675374 -0.18886635 0.22948773 0.06412752 -0.020794163 -0.07025336 -0.0019379854 0.03140516
0.19146529 -0.024518128 0.022675723 -0.11684038 -0.0053177667 0.05379449 0.09142639 0.0001975856
0.121600404 0.040774554 0.17361061 -0.10229498 -0.071052454 -0.09760758 -0.052516747 -0.15970676
-0.038794097 0.11587916 0.057706587 -0.18326339 0.020715818 -0.076662704 0.017271282 -0.13280961
-0.12457331 0.0666501 0.09107435 0.036177453 -0.120249845 -0.047843307 -0.07777895 -0.06698297
-0.05181931 0.03696737 -0.04925584 0.024479738 -0.41690928 -0.10307037 0.08739776 0.052976567
0.02565307 -0.049636215 0.050907582 -0.085574985 -0.050435852 -0.054576643 -0.007917251 0.13771023
0.09964254 0.10678765 0.00045500102 -0.014301593 -0.11942075 -0.02280053 0.10573225 -0.2654561
-0.00617836 0.17890161 0.2553172 -0.1238434 0.003914826 0.020612255 0.077717096 -0.08891816
-0.21835335 0.07315309 0.009929141 -0.12344674 -0.0013391925 -0.05553198 0.04701492 0.05266257
0.0075356215 0.092304304 -0.0021565438 0.085693955 -0.062193476 0.014729992 0.10177239 0.009242813
0.023669453 0.058813035 -0.33703247 -0.012597758 -0.24777023 -0.22830659 -0.18939368 -0.091920935
-0.1710973 0.038147677 -0.022307262 0.3594882 -0.123296194 -0.07534221 -0.08054065 0.03538014
-0.10271764 -0.117461495 0.12385227 -0.034742367 0.3059731 0.032242898 -0.031598855 0.09264419
-0.07894024 -0.11529699 -0.08367109 -0.038364258 0.035288043 0.04987133 -0.10951579 -0.26109418

bias f4 [3]
00000000: 5f22 b83d 39b2 413d 17cb 74bd
0.08990931 0.047289107 -0.059763994
